…
088, 952, 816, 680, 544, 408, 272]', 'conv1d_kernel_size': '[6, 12, 18, 24, 30, 36, 42, 48, 54, 60]', 'dilation_rate_size': '[44, 40, 36, 32, 28, 24, 20, 16, 12, 8]', 'epochs': 20000, 'patience': 400, 'input_shape': (400, 1)}
Model: "model"
_________________________________________________________________
Layer (type)                 Output Shape              Param #   
=================================================================
input_1 (InputLayer)         [(None, 400, 1)]          0         
_________________________________________________________________
conv1d (Conv1D)              (None, 400, 64)           384       
_________________________________________________________________
activation (Activation)      (None, 400, 64)           0         
_________________________________________________________________
conv1d_1 (Conv1D)            (None, 400, 128)          57472     
_________________________________________________________________
activation_1 (Activation)    (None, 400, 128)          0         
_________________________________________________________________
conv1d_2 (Conv1D)            (None, 400, 256)          229632    
_________________________________________________________________
activation_2 (Activation)    (None, 400, 256)          0         
_________________________________________________________________
conv1d_3 (Conv1D)            (None, 400, 512)          918016    
_________________________________________________________________
activation_3 (Activation)    (None, 400, 512)          0         
_________________________________________________________________
flatten (Flatten)            (None, 204800)            0         
_________________________________________________________________
dense (Dense)                (None, 64)                13107264  
_________________________________________________________________
dense_1 (Dense)              (None, 128)               8320      
_________________________________________________________________
dense_2 (Dense)              (None, 256)               33024     
_________________________________________________________________
dense_3 (Dense)              (None, 1)                 257       
=================================================================
Total params: 14,354,369
Trainable params: 14,354,369
Non-trainable params: 0
_________________________________________________________________
