…
Test labels shape: (400, 1)
Validation labels shape: (400, 1)
[[… Model: "model"
__________________________________________________________________________________________________
Layer (type)                    Output Shape         Param #     Connected to                     
==================================================================================================
input_1 (InputLayer)            [(None, 400, 1)]     0                                            
__________________________________________________________________________________________________
conv1d (Conv1D)                 (None, 400, 64)      256         input_1[0][0]                    
__________________________________________________________________________________________________
conv1d_1 (Conv1D)               (None, 400, 128)     24704       conv1d[0][0]                     
__________________________________________________________________________________________________
conv1d_2 (Conv1D)               (None, 400, 256)     98560       conv1d_1[0][0]                   
__________________________________________________________________________________________________
conv1d_3 (Conv1D)               (None, 400, 512)     393728      conv1d_2[0][0]                   
__________________________________________________________________________________________________
multi_head_attention (MultiHead (None, 400, 512)     1050624     conv1d_3[0][0]                   
                                                                 conv1d_3[0][0]                   
__________________________________________________________________________________________________
flatten (Flatten)               (None, 204800)       0           multi_head_attention[0][0]       
__________________________________________________________________________________________________
dense (Dense)                   (None, 64)           13107264    flatten[0][0]                    
__________________________________________________________________________________________________
dense_1 (Dense)                 (None, 192)          12480       dense[0][0]                      
__________________________________________________________________________________________________
dense_2 (Dense)                 (None, 256)          49408       dense_1[0][0]                    
__________________________________________________________________________________________________
dense_3 (Dense)                 (None, 1)            257         dense_2[0][0]                    
==================================================================================================
Total params: 14,737,281
Trainable params: 14,737,281
Non-trainable params: 0
__________________________________________________________________________________________________
Epoch 1/20000
