…
param_dict {'num_deep_layers': 6, 'initial_learning_rate': 0.00115, 'decay_rate': 0.95, 'batch_size': 400, 'num_cnn_layers': 10, 'padding': 'valid', 'dilation': True, 'batch_normalization': True, 'index': 12, 'deep_layer_size': '[1072, 528, 416, 368, 488, 328]', 'epochs': 20000, 'patience': 400, 'input_shape': [400, 1]}
Model: "model"
_________________________________________________________________
Layer (type)                 Output Shape              Param #   
=================================================================
input_1 (InputLayer)         [(None, 400, 1)]          0         
_________________________________________________________________
conv1d (Conv1D)              (None, 400, 64)           384       
_________________________________________________________________
activation (Activation)      (None, 400, 64)           0         
_________________________________________________________________
conv1d_1 (Conv1D)            (None, 400, 128)          57472     
_________________________________________________________________
activation_1 (Activation)    (None, 400, 128)          0         
_________________________________________________________________
conv1d_2 (Conv1D)            (None, 400, 256)          229632    
_________________________________________________________________
activation_2 (Activation)    (None, 400, 256)          0         
_________________________________________________________________
conv1d_3 (Conv1D)            (None, 400, 512)          918016    
_________________________________________________________________
activation_3 (Activation)    (None, 400, 512)          0         
_________________________________________________________________
flatten (Flatten)            (None, 204800)            0         
_________________________________________________________________
dense (Dense)                (None, 64)                13107264  
_________________________________________________________________
dense_1 (Dense)              (None, 128)               8320      
_________________________________________________________________
dense_2 (Dense)              (None, 256)               33024     
_________________________________________________________________
dense_3 (Dense)              (None, 1)                 257       
=================================================================
Total params: 14,354,369
Trainable params: 14,354,369
Non-trainable params: 0
_________________________________________________________________
